phase4/data/lcg_model.npz (npz, 1184 bytes, 4 tensors)

w f8 [6, 2]
000000 cd 7a 75 fa f1 bf 81 bf 0d 5c cc e6 36 b6 21 3f
       -0.008666887718104555 0.00013513012108809543
000010 a5 27 b3 8d 98 9f 71 bf e7 ca d3 7c a9 17 47 3f
       -0.004302593147437782 0.0007047250343517859
000020 ff 77 05 fc eb bd 83 bf 7f 3f a1 d9 af fe 4c bf
       -0.009639590862828838 -0.000884853233637614
000030 bb 49 d5 d2 ee 86 80 bf 55 ec 0c 5a 2f 97 49 3f
       -0.008069864091031378 0.0007809621057285424
000040 5e 24 92 0d 38 63 55 bf e2 6d 39 c2 00 e6 7b 3f
       -0.0013053939240157612 0.0068111447941094656
000050 2c be 7f 05 0e b7 84 bf 1c 9f 7e 3b 23 fc 76 3f
       -0.010114774267974878 0.00561155092865542

b f8 [2]
000000 73 10 a8 79 a4 46 cb bf 16 f9 12 8e 10 d6 a9 3f
       -0.2130933374429592 0.05046130880644932

x_mean f8 [6]
000000 ed 01 62 78 27 1f bb 3f c7 b0 af 63 bb 64 b5 3f
       0.1059441250708983 0.08356829818484633
000010 33 88 7a bb b7 a9 99 bf bc a9 03 d4 10 b5 b0 3f
       -0.025061484163082248 0.06526284385805686
000020 87 a3 89 52 47 fa cf 3f 24 3c c2 23 3c c2 dd 3f
       0.24982539682539714 0.46498015873015874

x_std f8 [6]
000000 ea 24 d7 15 58 c0 db 3f 23 0f b8 5d a6 7f e0 3f
       0.43361475117542503 0.515582259220967
000010 a2 56 f3 f7 de 93 c8 3f 48 82 0d ab ee 2c cd 3f
       0.19201266390762323 0.22793372490106578
000020 e6 77 69 f8 87 e2 b4 3f 86 d4 5c 05 e6 eb df 3f
       0.08158159079309221 0.4987731029862704
